{"sample_weight_mode": null, "loss": "dice_coef", "loss_weights": null, "config": {"name": "model_1", "output_layers": [["merge_12", 0, 0]], "layers": [{"inbound_nodes": [], "config": {"input_dtype": "float32", "name": "input_1", "batch_input_shape": [null, 1, 160, 224]}, "name": "input_1", "class_name": "InputLayer"}, {"inbound_nodes": [[["input_1", 0, 0]]], "config": {"trainable": true, "name": "zeropadding2d_1", "padding": [4, 4]}, "name": "zeropadding2d_1", "class_name": "ZeroPadding2D"}, {"inbound_nodes": [[["input_1", 0, 0]]], "config": {"trainable": true, "name": "zeropadding2d_2", "padding": [3, 3]}, "name": "zeropadding2d_2", "class_name": "ZeroPadding2D"}, {"inbound_nodes": [[["input_1", 0, 0]]], "config": {"trainable": true, "name": "zeropadding2d_3", "padding": [2, 2]}, "name": "zeropadding2d_3", "class_name": "ZeroPadding2D"}, {"inbound_nodes": [[["input_1", 0, 0]]], "config": {"trainable": true, "name": "zeropadding2d_4", "padding": [4, 4]}, "name": "zeropadding2d_4", "class_name": "ZeroPadding2D"}, {"inbound_nodes": [[["input_1", 0, 0]]], "config": {"trainable": true, "name": "zeropadding2d_5", "padding": [3, 3]}, "name": "zeropadding2d_5", "class_name": "ZeroPadding2D"}, {"inbound_nodes": [[["input_1", 0, 0]]], "config": {"trainable": true, "name": "zeropadding2d_6", "padding": [2, 2]}, "name": "zeropadding2d_6", "class_name": "ZeroPadding2D"}, {"inbound_nodes": [[["zeropadding2d_1", 0, 0]]], "config": {"b_constraint": null, "W_regularizer": null, "name": "convolution2d_1", "activation": "linear", "W_constraint": null, "border_mode": "valid", "trainable": true, "init": "glorot_uniform", "nb_col": 9, "nb_filter": 16, "bias": true, "b_regularizer": null, "dim_ordering": "th", "nb_row": 9, "activity_regularizer": null, "subsample": [1, 1]}, "name": "convolution2d_1", "class_name": "Convolution2D"}, {"inbound_nodes": [[["zeropadding2d_2", 0, 0]]], "config": {"b_constraint": null, "W_regularizer": null, "name": "convolution2d_2", "activation": "linear", "W_constraint": null, "border_mode": "valid", "trainable": true, "init": "glorot_uniform", "nb_col": 7, "nb_filter": 8, "bias": true, "b_regularizer": null, "dim_ordering": "th", "nb_row": 7, "activity_regularizer": null, "subsample": [1, 1]}, "name": "convolution2d_2", "class_name": "Convolution2D"}, {"inbound_nodes": [[["zeropadding2d_3", 0, 0]]], "config": {"b_constraint": null, "W_regularizer": null, "name": "convolution2d_3", "activation": "linear", "W_constraint": null, "border_mode": "valid", "trainable": true, "init": "glorot_uniform", "nb_col": 5, "nb_filter": 8, "bias": true, "b_regularizer": null, "dim_ordering": "th", "nb_row": 5, "activity_regularizer": null, "subsample": [1, 1]}, "name": "convolution2d_3", "class_name": "Convolution2D"}, {"inbound_nodes": [[["zeropadding2d_4", 0, 0]]], "config": {"b_constraint": null, "W_regularizer": null, "name": "convolution2d_4", "activation": "linear", "W_constraint": null, "border_mode": "valid", "trainable": true, "init": "glorot_uniform", "nb_col": 9, "nb_filter": 16, "bias": true, "b_regularizer": null, "dim_ordering": "th", "nb_row": 9, "activity_regularizer": null, "subsample": [1, 1]}, "name": "convolution2d_4", "class_name": "Convolution2D"}, {"inbound_nodes": [[["zeropadding2d_5", 0, 0]]], "config": {"b_constraint": null, "W_regularizer": null, "name": "convolution2d_5", "activation": "linear", "W_constraint": null, "border_mode": "valid", "trainable": true, "init": "glorot_uniform", "nb_col": 7, "nb_filter": 8, "bias": true, "b_regularizer": null, "dim_ordering": "th", "nb_row": 7, "activity_regularizer": null, "subsample": [1, 1]}, "name": "convolution2d_5", "class_name": "Convolution2D"}, {"inbound_nodes": [[["zeropadding2d_6", 0, 0]]], "config": {"b_constraint": null, "W_regularizer": null, "name": "convolution2d_6", "activation": "linear", "W_constraint": null, "border_mode": "valid", "trainable": true, "init": "glorot_uniform", "nb_col": 5, "nb_filter": 8, "bias": true, "b_regularizer": null, "dim_ordering": "th", "nb_row": 5, "activity_regularizer": null, "subsample": [1, 1]}, "name": "convolution2d_6", "class_name": "Convolution2D"}, {"inbound_nodes": [[["convolution2d_1", 0, 0]]], "config": {"momentum": 0.99, "mode": 0, "name": "batchnormalization_1", "axis": 1, "trainable": true, "epsilon": 1e-06}, "name": "batchnormalization_1", "class_name": "BatchNormalization"}, {"inbound_nodes": [[["convolution2d_2", 0, 0]]], "config": {"momentum": 0.99, "mode": 0, "name": "batchnormalization_2", "axis": 1, "trainable": true, "epsilon": 1e-06}, "name": "batchnormalization_2", "class_name": "BatchNormalization"}, {"inbound_nodes": [[["convolution2d_3", 0, 0]]], "config": {"momentum": 0.99, "mode": 0, "name": "batchnormalization_3", "axis": 1, "trainable": true, "epsilon": 1e-06}, "name": "batchnormalization_3", "class_name": "BatchNormalization"}, {"inbound_nodes": [[["convolution2d_4", 0, 0]]], "config": {"momentum": 0.99, "mode": 0, "name": "batchnormalization_4", "axis": 1, "trainable": true, "epsilon": 1e-06}, "name": "batchnormalization_4", "class_name": "BatchNormalization"}, {"inbound_nodes": [[["convolution2d_5", 0, 0]]], "config": {"momentum": 0.99, "mode": 0, "name": "batchnormalization_5", "axis": 1, "trainable": true, "epsilon": 1e-06}, "name": "batchnormalization_5", "class_name": "BatchNormalization"}, {"inbound_nodes": [[["convolution2d_6", 0, 0]]], "config": {"momentum": 0.99, "mode": 0, "name": "batchnormalization_6", "axis": 1, "trainable": true, "epsilon": 1e-06}, "name": "batchnormalization_6", "class_name": "BatchNormalization"}, {"inbound_nodes": [[["batchnormalization_1", 0, 0]]], "config": {"trainable": true, "name": "leakyrelu_1", "alpha": 0.2}, "name": "leakyrelu_1", "class_name": "LeakyReLU"}, {"inbound_nodes": [[["batchnormalization_2", 0, 0]]], "config": {"trainable": true, "name": "leakyrelu_2", "alpha": 0.2}, "name": "leakyrelu_2", "class_name": "LeakyReLU"}, {"inbound_nodes": [[["batchnormalization_3", 0, 0]]], "config": {"trainable": true, "name": "leakyrelu_3", "alpha": 0.2}, "name": "leakyrelu_3", "class_name": "LeakyReLU"}, {"inbound_nodes": [[["batchnormalization_4", 0, 0]]], "config": {"trainable": true, "name": "leakyrelu_4", "alpha": 0.2}, "name": "leakyrelu_4", "class_name": "LeakyReLU"}, {"inbound_nodes": [[["batchnormalization_5", 0, 0]]], "config": {"trainable": true, "name": "leakyrelu_5", "alpha": 0.2}, "name": "leakyrelu_5", "class_name": "LeakyReLU"}, {"inbound_nodes": [[["batchnormalization_6", 0, 0]]], "config": {"trainable": true, "name": "leakyrelu_6", "alpha": 0.2}, "name": "leakyrelu_6", "class_name": "LeakyReLU"}, {"inbound_nodes": [[["leakyrelu_1", 0, 0], ["leakyrelu_2", 0, 0], ["leakyrelu_3", 0, 0]]], "config": {"output_shape": null, "mode_type": "raw", "mode": "concat", "name": "merge_1", "dot_axes": [-1, -1], "output_shape_type": "raw", "concat_axis": 1}, "name": "merge_1", "class_name": "Merge"}, {"inbound_nodes": [[["leakyrelu_4", 0, 0], ["leakyrelu_5", 0, 0], ["leakyrelu_6", 0, 0]]], "config": {"output_shape": null, "mode_type": "raw", "mode": "concat", "name": "merge_2", "dot_axes": [-1, -1], "output_shape_type": "raw", "concat_axis": 1}, "name": "merge_2", "class_name": "Merge"}, {"inbound_nodes": [[["merge_2", 0, 0]]], "config": {"name": "averagepooling2d_1", "pool_size": [4, 4], "dim_ordering": "th", "trainable": true, "border_mode": "valid", "strides": [4, 4]}, "name": "averagepooling2d_1", "class_name": "AveragePooling2D"}, {"inbound_nodes": [[["merge_1", 0, 0]]], "config": {"name": "maxpooling2d_1", "pool_size": [4, 4], "dim_ordering": "th", "trainable": true, "border_mode": "valid", "strides": [4, 4]}, "name": "maxpooling2d_1", "class_name": "MaxPooling2D"}, {"inbound_nodes": [[["maxpooling2d_1", 0, 0], ["averagepooling2d_1", 0, 0]]], "config": {"output_shape": null, "mode_type": "raw", "mode": "concat", "name": "merge_3", "dot_axes": [-1, -1], "output_shape_type": "raw", "concat_axis": 1}, "name": "merge_3", "class_name": "Merge"}, {"inbound_nodes": [[["merge_3", 0, 0]]], "config": {"trainable": true, "name": "zeropadding2d_7", "padding": [1, 1]}, "name": "zeropadding2d_7", "class_name": "ZeroPadding2D"}, {"inbound_nodes": [[["merge_3", 0, 0]]], "config": {"trainable": true, "name": "zeropadding2d_8", "padding": [1, 1]}, "name": "zeropadding2d_8", "class_name": "ZeroPadding2D"}, {"inbound_nodes": [[["zeropadding2d_7", 0, 0]]], "config": {"b_constraint": null, "W_regularizer": null, "name": "convolution2d_7", "activation": "linear", "W_constraint": null, "border_mode": "valid", "trainable": true, "init": "glorot_uniform", "nb_col": 3, "nb_filter": 128, "bias": true, "b_regularizer": null, "dim_ordering": "th", "nb_row": 3, "activity_regularizer": null, "subsample": [1, 1]}, "name": "convolution2d_7", "class_name": "Convolution2D"}, {"inbound_nodes": [[["zeropadding2d_8", 0, 0]]], "config": {"b_constraint": null, "W_regularizer": null, "name": "convolution2d_8", "activation": "linear", "W_constraint": null, "border_mode": "valid", "trainable": true, "init": "glorot_uniform", "nb_col": 3, "nb_filter": 128, "bias": true, "b_regularizer": null, "dim_ordering": "th", "nb_row": 3, "activity_regularizer": null, "subsample": [1, 1]}, "name": "convolution2d_8", "class_name": "Convolution2D"}, {"inbound_nodes": [[["convolution2d_7", 0, 0]]], "config": {"momentum": 0.99, "mode": 0, "name": "batchnormalization_7", "axis": 1, "trainable": true, "epsilon": 1e-06}, "name": "batchnormalization_7", "class_name": "BatchNormalization"}, {"inbound_nodes": [[["convolution2d_8", 0, 0]]], "config": {"momentum": 0.99, "mode": 0, "name": "batchnormalization_8", "axis": 1, "trainable": true, "epsilon": 1e-06}, "name": "batchnormalization_8", "class_name": "BatchNormalization"}, {"inbound_nodes": [[["batchnormalization_7", 0, 0]]], "config": {"trainable": true, "name": "leakyrelu_7", "alpha": 0.2}, "name": "leakyrelu_7", "class_name": "LeakyReLU"}, {"inbound_nodes": [[["batchnormalization_8", 0, 0]]], "config": {"trainable": true, "name": "leakyrelu_8", "alpha": 0.2}, "name": "leakyrelu_8", "class_name": "LeakyReLU"}, {"inbound_nodes": [[["leakyrelu_7", 0, 0], ["leakyrelu_8", 0, 0]]], "config": {"output_shape": null, "mode_type": "raw", "mode": "concat", "name": "merge_4", "dot_axes": [-1, -1], "output_shape_type": "raw", "concat_axis": 1}, "name": "merge_4", "class_name": "Merge"}, {"inbound_nodes": [[["merge_4", 0, 0]]], "config": {"trainable": true, "name": "zeropadding2d_10", "padding": [1, 1]}, "name": "zeropadding2d_10", "class_name": "ZeroPadding2D"}, {"inbound_nodes": [[["merge_4", 0, 0]]], "config": {"trainable": true, "name": "zeropadding2d_9", "padding": [1, 1]}, "name": "zeropadding2d_9", "class_name": "ZeroPadding2D"}, {"inbound_nodes": [[["zeropadding2d_10", 0, 0]]], "config": {"b_constraint": null, "W_regularizer": null, "name": "convolution2d_10", "activation": "linear", "W_constraint": null, "border_mode": "valid", "trainable": true, "init": "glorot_uniform", "nb_col": 3, "nb_filter": 128, "bias": true, "b_regularizer": null, "dim_ordering": "th", "nb_row": 3, "activity_regularizer": null, "subsample": [1, 1]}, "name": "convolution2d_10", "class_name": "Convolution2D"}, {"inbound_nodes": [[["zeropadding2d_9", 0, 0]]], "config": {"b_constraint": null, "W_regularizer": null, "name": "convolution2d_9", "activation": "linear", "W_constraint": null, "border_mode": "valid", "trainable": true, "init": "glorot_uniform", "nb_col": 3, "nb_filter": 128, "bias": true, "b_regularizer": null, "dim_ordering": "th", "nb_row": 3, "activity_regularizer": null, "subsample": [1, 1]}, "name": "convolution2d_9", "class_name": "Convolution2D"}, {"inbound_nodes": [[["convolution2d_10", 0, 0]]], "config": {"momentum": 0.99, "mode": 0, "name": "batchnormalization_10", "axis": 1, "trainable": true, "epsilon": 1e-06}, "name": "batchnormalization_10", "class_name": "BatchNormalization"}, {"inbound_nodes": [[["convolution2d_9", 0, 0]]], "config": {"momentum": 0.99, "mode": 0, "name": "batchnormalization_9", "axis": 1, "trainable": true, "epsilon": 1e-06}, "name": "batchnormalization_9", "class_name": "BatchNormalization"}, {"inbound_nodes": [[["batchnormalization_10", 0, 0]]], "config": {"trainable": true, "name": "leakyrelu_10", "alpha": 0.2}, "name": "leakyrelu_10", "class_name": "LeakyReLU"}, {"inbound_nodes": [[["batchnormalization_9", 0, 0]]], "config": {"trainable": true, "name": "leakyrelu_9", "alpha": 0.2}, "name": "leakyrelu_9", "class_name": "LeakyReLU"}, {"inbound_nodes": [[["leakyrelu_9", 0, 0], ["leakyrelu_10", 0, 0]]], "config": {"output_shape": null, "mode_type": "raw", "mode": "concat", "name": "merge_5", "dot_axes": [-1, -1], "output_shape_type": "raw", "concat_axis": 1}, "name": "merge_5", "class_name": "Merge"}, {"inbound_nodes": [[["merge_5", 0, 0]]], "config": {"name": "maxpooling2d_2", "pool_size": [2, 2], "dim_ordering": "th", "trainable": true, "border_mode": "valid", "strides": [2, 2]}, "name": "maxpooling2d_2", "class_name": "MaxPooling2D"}, {"inbound_nodes": [[["maxpooling2d_2", 0, 0]]], "config": {"trainable": true, "name": "zeropadding2d_11", "padding": [1, 1]}, "name": "zeropadding2d_11", "class_name": "ZeroPadding2D"}, {"inbound_nodes": [[["maxpooling2d_2", 0, 0]]], "config": {"trainable": true, "name": "zeropadding2d_13", "padding": [1, 1]}, "name": "zeropadding2d_13", "class_name": "ZeroPadding2D"}, {"inbound_nodes": [[["zeropadding2d_11", 0, 0]]], "config": {"b_constraint": null, "W_regularizer": null, "name": "convolution2d_11", "activation": "linear", "W_constraint": null, "border_mode": "valid", "trainable": true, "init": "glorot_uniform", "nb_col": 3, "nb_filter": 256, "bias": true, "b_regularizer": null, "dim_ordering": "th", "nb_row": 3, "activity_regularizer": null, "subsample": [1, 1]}, "name": "convolution2d_11", "class_name": "Convolution2D"}, {"inbound_nodes": [[["zeropadding2d_13", 0, 0]]], "config": {"b_constraint": null, "W_regularizer": null, "name": "convolution2d_13", "activation": "linear", "W_constraint": null, "border_mode": "valid", "trainable": true, "init": "glorot_uniform", "nb_col": 3, "nb_filter": 256, "bias": true, "b_regularizer": null, "dim_ordering": "th", "nb_row": 3, "activity_regularizer": null, "subsample": [1, 1]}, "name": "convolution2d_13", "class_name": "Convolution2D"}, {"inbound_nodes": [[["convolution2d_11", 0, 0]]], "config": {"momentum": 0.99, "mode": 0, "name": "batchnormalization_11", "axis": 1, "trainable": true, "epsilon": 1e-06}, "name": "batchnormalization_11", "class_name": "BatchNormalization"}, {"inbound_nodes": [[["convolution2d_13", 0, 0]]], "config": {"momentum": 0.99, "mode": 0, "name": "batchnormalization_13", "axis": 1, "trainable": true, "epsilon": 1e-06}, "name": "batchnormalization_13", "class_name": "BatchNormalization"}, {"inbound_nodes": [[["batchnormalization_11", 0, 0]]], "config": {"trainable": true, "name": "leakyrelu_11", "alpha": 0.2}, "name": "leakyrelu_11", "class_name": "LeakyReLU"}, {"inbound_nodes": [[["batchnormalization_13", 0, 0]]], "config": {"trainable": true, "name": "leakyrelu_13", "alpha": 0.2}, "name": "leakyrelu_13", "class_name": "LeakyReLU"}, {"inbound_nodes": [[["leakyrelu_13", 0, 0]]], "config": {"name": "maxpooling2d_4", "pool_size": [2, 2], "dim_ordering": "th", "trainable": true, "border_mode": "valid", "strides": [2, 2]}, "name": "maxpooling2d_4", "class_name": "MaxPooling2D"}, {"inbound_nodes": [[["leakyrelu_11", 0, 0]]], "config": {"trainable": true, "name": "zeropadding2d_12", "padding": [1, 1]}, "name": "zeropadding2d_12", "class_name": "ZeroPadding2D"}, {"inbound_nodes": [[["zeropadding2d_12", 0, 0]]], "config": {"b_constraint": null, "W_regularizer": null, "name": "convolution2d_12", "activation": "linear", "W_constraint": null, "border_mode": "valid", "trainable": true, "init": "glorot_uniform", "nb_col": 3, "nb_filter": 256, "bias": true, "b_regularizer": null, "dim_ordering": "th", "nb_row": 3, "activity_regularizer": null, "subsample": [1, 1]}, "name": "convolution2d_12", "class_name": "Convolution2D"}, {"inbound_nodes": [[["maxpooling2d_4", 0, 0]]], "config": {"b_constraint": null, "W_regularizer": null, "name": "locallyconnected2d_fast_1", "activation": "linear", "W_constraint": null, "border_mode": "valid", "trainable": true, "init": "glorot_uniform", "nb_col": 1, "nb_filter": 32, "bias": true, "b_regularizer": null, "dim_ordering": "th", "nb_row": 1, "activity_regularizer": null, "subsample": [1, 1]}, "name": "locallyconnected2d_fast_1", "class_name": "LocallyConnected2D_fast"}, {"inbound_nodes": [[["convolution2d_12", 0, 0]]], "config": {"momentum": 0.99, "mode": 0, "name": "batchnormalization_12", "axis": 1, "trainable": true, "epsilon": 1e-06}, "name": "batchnormalization_12", "class_name": "BatchNormalization"}, {"inbound_nodes": [[["locallyconnected2d_fast_1", 0, 0]]], "config": {"trainable": true, "name": "reshape_2", "target_shape": [4480]}, "name": "reshape_2", "class_name": "Reshape"}, {"inbound_nodes": [[["reshape_2", 0, 0]]], "config": {"momentum": 0.99, "mode": 0, "name": "batchnormalization_18", "axis": 1, "trainable": true, "epsilon": 1e-06}, "name": "batchnormalization_18", "class_name": "BatchNormalization"}, {"inbound_nodes": [[["batchnormalization_12", 0, 0]]], "config": {"trainable": true, "name": "leakyrelu_12", "alpha": 0.2}, "name": "leakyrelu_12", "class_name": "LeakyReLU"}, {"inbound_nodes": [[["leakyrelu_12", 0, 0]]], "config": {"name": "maxpooling2d_3", "pool_size": [2, 2], "dim_ordering": "th", "trainable": true, "border_mode": "valid", "strides": [2, 2]}, "name": "maxpooling2d_3", "class_name": "MaxPooling2D"}, {"inbound_nodes": [[["batchnormalization_18", 0, 0]]], "config": {"trainable": true, "name": "reshape_1", "target_shape": [32, 10, 14]}, "name": "reshape_1", "class_name": "Reshape"}, {"inbound_nodes": [[["reshape_1", 0, 0]]], "config": {"trainable": true, "name": "leakyrelu_18", "alpha": 0.2}, "name": "leakyrelu_18", "class_name": "LeakyReLU"}, {"inbound_nodes": [[["maxpooling2d_3", 0, 0]]], "config": {"trainable": true, "name": "zeropadding2d_15", "padding": [1, 1]}, "name": "zeropadding2d_15", "class_name": "ZeroPadding2D"}, {"inbound_nodes": [[["maxpooling2d_3", 0, 0]]], "config": {"b_constraint": null, "W_regularizer": null, "name": "convolution2d_16", "activation": "linear", "W_constraint": null, "border_mode": "valid", "trainable": true, "init": "glorot_uniform", "nb_col": 1, "nb_filter": 64, "bias": true, "b_regularizer": null, "dim_ordering": "th", "nb_row": 1, "activity_regularizer": null, "subsample": [1, 1]}, "name": "convolution2d_16", "class_name": "Convolution2D"}, {"inbound_nodes": [[["zeropadding2d_15", 0, 0]]], "config": {"b_constraint": null, "W_regularizer": null, "name": "convolution2d_17", "activation": "linear", "W_constraint": null, "border_mode": "valid", "trainable": true, "init": "glorot_uniform", "nb_col": 3, "nb_filter": 256, "bias": true, "b_regularizer": null, "dim_ordering": "th", "nb_row": 3, "activity_regularizer": null, "subsample": [1, 1]}, "name": "convolution2d_17", "class_name": "Convolution2D"}, {"inbound_nodes": [[["leakyrelu_18", 0, 0]]], "config": {"b_constraint": null, "W_regularizer": null, "name": "locallyconnected2d_fast_2", "activation": "linear", "W_constraint": null, "border_mode": "valid", "trainable": true, "init": "glorot_uniform", "nb_col": 2, "nb_filter": 32, "bias": true, "b_regularizer": null, "dim_ordering": "th", "nb_row": 2, "activity_regularizer": null, "subsample": [2, 2]}, "name": "locallyconnected2d_fast_2", "class_name": "LocallyConnected2D_fast"}, {"inbound_nodes": [[["convolution2d_16", 0, 0]]], "config": {"momentum": 0.99, "mode": 0, "name": "batchnormalization_16", "axis": 1, "trainable": true, "epsilon": 1e-06}, "name": "batchnormalization_16", "class_name": "BatchNormalization"}, {"inbound_nodes": [[["convolution2d_17", 0, 0]]], "config": {"momentum": 0.99, "mode": 0, "name": "batchnormalization_17", "axis": 1, "trainable": true, "epsilon": 1e-06}, "name": "batchnormalization_17", "class_name": "BatchNormalization"}, {"inbound_nodes": [[["locallyconnected2d_fast_2", 0, 0]]], "config": {"trainable": true, "name": "reshape_4", "target_shape": [1120]}, "name": "reshape_4", "class_name": "Reshape"}, {"inbound_nodes": [[["reshape_4", 0, 0]]], "config": {"momentum": 0.99, "mode": 0, "name": "batchnormalization_19", "axis": 1, "trainable": true, "epsilon": 1e-06}, "name": "batchnormalization_19", "class_name": "BatchNormalization"}, {"inbound_nodes": [[["batchnormalization_16", 0, 0]]], "config": {"trainable": true, "name": "leakyrelu_16", "alpha": 0.2}, "name": "leakyrelu_16", "class_name": "LeakyReLU"}, {"inbound_nodes": [[["batchnormalization_17", 0, 0]]], "config": {"trainable": true, "name": "leakyrelu_17", "alpha": 0.2}, "name": "leakyrelu_17", "class_name": "LeakyReLU"}, {"inbound_nodes": [[["maxpooling2d_3", 0, 0]]], "config": {"trainable": true, "name": "zeropadding2d_14", "padding": [1, 1]}, "name": "zeropadding2d_14", "class_name": "ZeroPadding2D"}, {"inbound_nodes": [[["zeropadding2d_14", 0, 0]]], "config": {"b_constraint": null, "W_regularizer": null, "name": "convolution2d_14", "activation": "linear", "W_constraint": null, "border_mode": "valid", "trainable": true, "init": "glorot_uniform", "nb_col": 3, "nb_filter": 256, "bias": true, "b_regularizer": null, "dim_ordering": "th", "nb_row": 3, "activity_regularizer": null, "subsample": [1, 1]}, "name": "convolution2d_14", "class_name": "Convolution2D"}, {"inbound_nodes": [[["maxpooling2d_3", 0, 0]]], "config": {"b_constraint": null, "W_regularizer": null, "name": "convolution2d_15", "activation": "linear", "W_constraint": null, "border_mode": "valid", "trainable": true, "init": "glorot_uniform", "nb_col": 1, "nb_filter": 256, "bias": true, "b_regularizer": null, "dim_ordering": "th", "nb_row": 1, "activity_regularizer": null, "subsample": [1, 1]}, "name": "convolution2d_15", "class_name": "Convolution2D"}, {"inbound_nodes": [[["leakyrelu_16", 0, 0], ["leakyrelu_17", 0, 0]]], "config": {"output_shape": null, "mode_type": "raw", "mode": "concat", "name": "merge_7", "dot_axes": [-1, -1], "output_shape_type": "raw", "concat_axis": 1}, "name": "merge_7", "class_name": "Merge"}, {"inbound_nodes": [[["batchnormalization_19", 0, 0]]], "config": {"trainable": true, "name": "reshape_3", "target_shape": [32, 5, 7]}, "name": "reshape_3", "class_name": "Reshape"}, {"inbound_nodes": [[["convolution2d_14", 0, 0]]], "config": {"momentum": 0.99, "mode": 0, "name": "batchnormalization_14", "axis": 1, "trainable": true, "epsilon": 1e-06}, "name": "batchnormalization_14", "class_name": "BatchNormalization"}, {"inbound_nodes": [[["convolution2d_15", 0, 0]]], "config": {"momentum": 0.99, "mode": 0, "name": "batchnormalization_15", "axis": 1, "trainable": true, "epsilon": 1e-06}, "name": "batchnormalization_15", "class_name": "BatchNormalization"}, {"inbound_nodes": [[["reshape_3", 0, 0]]], "config": {"trainable": true, "name": "leakyrelu_19", "alpha": 0.2}, "name": "leakyrelu_19", "class_name": "LeakyReLU"}, {"inbound_nodes": [[["merge_7", 0, 0]]], "config": {"name": "maxpooling2d_6", "pool_size": [2, 2], "dim_ordering": "th", "trainable": true, "border_mode": "valid", "strides": [2, 2]}, "name": "maxpooling2d_6", "class_name": "MaxPooling2D"}, {"inbound_nodes": [[["batchnormalization_14", 0, 0]]], "config": {"trainable": true, "name": "leakyrelu_14", "alpha": 0.2}, "name": "leakyrelu_14", "class_name": "LeakyReLU"}, {"inbound_nodes": [[["batchnormalization_15", 0, 0]]], "config": {"trainable": true, "name": "leakyrelu_15", "alpha": 0.2}, "name": "leakyrelu_15", "class_name": "LeakyReLU"}, {"inbound_nodes": [[["maxpooling2d_6", 0, 0], ["leakyrelu_19", 0, 0]]], "config": {"output_shape": null, "mode_type": "raw", "mode": "concat", "name": "merge_8", "dot_axes": [-1, -1], "output_shape_type": "raw", "concat_axis": 1}, "name": "merge_8", "class_name": "Merge"}, {"inbound_nodes": [[["merge_8", 0, 0]]], "config": {"b_constraint": null, "W_regularizer": null, "name": "locallyconnected2d_fast_3", "activation": "linear", "W_constraint": null, "border_mode": "valid", "trainable": true, "init": "glorot_uniform", "nb_col": 1, "nb_filter": 32, "bias": true, "b_regularizer": null, "dim_ordering": "th", "nb_row": 1, "activity_regularizer": null, "subsample": [1, 1]}, "name": "locallyconnected2d_fast_3", "class_name": "LocallyConnected2D_fast"}, {"inbound_nodes": [[["leakyrelu_15", 0, 0], ["leakyrelu_14", 0, 0]]], "config": {"output_shape": null, "mode_type": "raw", "mode": "concat", "name": "merge_6", "dot_axes": [-1, -1], "output_shape_type": "raw", "concat_axis": 1}, "name": "merge_6", "class_name": "Merge"}, {"inbound_nodes": [[["merge_6", 0, 0]]], "config": {"name": "maxpooling2d_5", "pool_size": [2, 2], "dim_ordering": "th", "trainable": true, "border_mode": "valid", "strides": [2, 2]}, "name": "maxpooling2d_5", "class_name": "MaxPooling2D"}, {"inbound_nodes": [[["locallyconnected2d_fast_3", 0, 0]]], "config": {"trainable": true, "name": "reshape_6", "target_shape": [1120]}, "name": "reshape_6", "class_name": "Reshape"}, {"inbound_nodes": [[["reshape_6", 0, 0]]], "config": {"momentum": 0.99, "mode": 0, "name": "batchnormalization_23", "axis": 1, "trainable": true, "epsilon": 1e-06}, "name": "batchnormalization_23", "class_name": "BatchNormalization"}, {"inbound_nodes": [[["maxpooling2d_5", 0, 0]]], "config": {"trainable": true, "name": "zeropadding2d_16", "padding": [1, 1]}, "name": "zeropadding2d_16", "class_name": "ZeroPadding2D"}, {"inbound_nodes": [[["zeropadding2d_16", 0, 0]]], "config": {"b_constraint": null, "W_regularizer": null, "name": "convolution2d_18", "activation": "linear", "W_constraint": null, "border_mode": "valid", "trainable": true, "init": "glorot_uniform", "nb_col": 3, "nb_filter": 256, "bias": true, "b_regularizer": null, "dim_ordering": "th", "nb_row": 3, "activity_regularizer": null, "subsample": [1, 1]}, "name": "convolution2d_18", "class_name": "Convolution2D"}, {"inbound_nodes": [[["batchnormalization_23", 0, 0]]], "config": {"trainable": true, "name": "reshape_5", "target_shape": [32, 5, 7]}, "name": "reshape_5", "class_name": "Reshape"}, {"inbound_nodes": [[["convolution2d_18", 0, 0]]], "config": {"momentum": 0.99, "mode": 0, "name": "batchnormalization_20", "axis": 1, "trainable": true, "epsilon": 1e-06}, "name": "batchnormalization_20", "class_name": "BatchNormalization"}, {"inbound_nodes": [[["reshape_5", 0, 0]]], "config": {"trainable": true, "name": "leakyrelu_23", "alpha": 0.2}, "name": "leakyrelu_23", "class_name": "LeakyReLU"}, {"inbound_nodes": [[["batchnormalization_20", 0, 0]]], "config": {"trainable": true, "name": "leakyrelu_20", "alpha": 0.2}, "name": "leakyrelu_20", "class_name": "LeakyReLU"}, {"inbound_nodes": [[["leakyrelu_23", 0, 0]]], "config": {"trainable": true, "name": "zeropadding2d_17", "padding": [1, 1]}, "name": "zeropadding2d_17", "class_name": "ZeroPadding2D"}, {"inbound_nodes": [[["leakyrelu_20", 0, 0]]], "config": {"b_constraint": null, "W_regularizer": null, "name": "convolution2d_19", "activation": "linear", "W_constraint": null, "border_mode": "valid", "trainable": true, "init": "glorot_uniform", "nb_col": 1, "nb_filter": 128, "bias": true, "b_regularizer": null, "dim_ordering": "th", "nb_row": 1, "activity_regularizer": null, "subsample": [1, 1]}, "name": "convolution2d_19", "class_name": "Convolution2D"}, {"inbound_nodes": [[["leakyrelu_20", 0, 0]]], "config": {"b_constraint": null, "W_regularizer": null, "name": "convolution2d_20", "activation": "linear", "W_constraint": null, "border_mode": "valid", "trainable": true, "init": "glorot_uniform", "nb_col": 1, "nb_filter": 128, "bias": true, "b_regularizer": null, "dim_ordering": "th", "nb_row": 1, "activity_regularizer": null, "subsample": [1, 1]}, "name": "convolution2d_20", "class_name": "Convolution2D"}, {"inbound_nodes": [[["zeropadding2d_17", 0, 0]]], "config": {"b_constraint": null, "W_regularizer": null, "name": "locallyconnected2d_1", "activation": "linear", "W_constraint": null, "border_mode": "valid", "trainable": true, "init": "glorot_uniform", "nb_col": 3, "nb_filter": 32, "bias": true, "b_regularizer": null, "dim_ordering": "th", "nb_row": 3, "activity_regularizer": null, "subsample": [1, 1]}, "name": "locallyconnected2d_1", "class_name": "LocallyConnected2D"}, {"inbound_nodes": [[["convolution2d_19", 0, 0]]], "config": {"momentum": 0.99, "mode": 0, "name": "batchnormalization_21", "axis": 1, "trainable": true, "epsilon": 1e-06}, "name": "batchnormalization_21", "class_name": "BatchNormalization"}, {"inbound_nodes": [[["convolution2d_20", 0, 0]]], "config": {"momentum": 0.99, "mode": 0, "name": "batchnormalization_22", "axis": 1, "trainable": true, "epsilon": 1e-06}, "name": "batchnormalization_22", "class_name": "BatchNormalization"}, {"inbound_nodes": [[["locallyconnected2d_1", 0, 0]]], "config": {"trainable": true, "name": "reshape_8", "target_shape": [1120]}, "name": "reshape_8", "class_name": "Reshape"}, {"inbound_nodes": [[["reshape_8", 0, 0]]], "config": {"momentum": 0.99, "mode": 0, "name": "batchnormalization_24", "axis": 1, "trainable": true, "epsilon": 1e-06}, "name": "batchnormalization_24", "class_name": "BatchNormalization"}, {"inbound_nodes": [[["batchnormalization_21", 0, 0]]], "config": {"trainable": true, "name": "leakyrelu_21", "alpha": 0.2}, "name": "leakyrelu_21", "class_name": "LeakyReLU"}, {"inbound_nodes": [[["batchnormalization_22", 0, 0]]], "config": {"trainable": true, "name": "leakyrelu_22", "alpha": 0.2}, "name": "leakyrelu_22", "class_name": "LeakyReLU"}, {"inbound_nodes": [[["leakyrelu_22", 0, 0]]], "config": {"name": "averagepooling2d_2", "pool_size": [5, 7], "dim_ordering": "th", "trainable": true, "border_mode": "valid", "strides": [5, 7]}, "name": "averagepooling2d_2", "class_name": "AveragePooling2D"}, {"inbound_nodes": [[["leakyrelu_21", 0, 0]]], "config": {"name": "maxpooling2d_7", "pool_size": [5, 7], "dim_ordering": "th", "trainable": true, "border_mode": "valid", "strides": [5, 7]}, "name": "maxpooling2d_7", "class_name": "MaxPooling2D"}, {"inbound_nodes": [[["batchnormalization_24", 0, 0]]], "config": {"trainable": true, "name": "reshape_7", "target_shape": [32, 5, 7]}, "name": "reshape_7", "class_name": "Reshape"}, {"inbound_nodes": [[["reshape_7", 0, 0]]], "config": {"trainable": true, "name": "leakyrelu_24", "alpha": 0.2}, "name": "leakyrelu_24", "class_name": "LeakyReLU"}, {"inbound_nodes": [[["maxpooling2d_7", 0, 0], ["averagepooling2d_2", 0, 0]]], "config": {"output_shape": null, "mode_type": "raw", "mode": "concat", "name": "merge_9", "dot_axes": [-1, -1], "output_shape_type": "raw", "concat_axis": 1}, "name": "merge_9", "class_name": "Merge"}, {"inbound_nodes": [[["merge_9", 0, 0]]], "config": {"trainable": true, "name": "flatten_1"}, "name": "flatten_1", "class_name": "Flatten"}, {"inbound_nodes": [[["leakyrelu_24", 0, 0]]], "config": {"trainable": true, "name": "flatten_2"}, "name": "flatten_2", "class_name": "Flatten"}, {"inbound_nodes": [[["flatten_1", 0, 0], ["flatten_2", 0, 0]]], "config": {"output_shape": null, "mode_type": "raw", "mode": "concat", "name": "merge_10", "dot_axes": [-1, -1], "output_shape_type": "raw", "concat_axis": 1}, "name": "merge_10", "class_name": "Merge"}, {"inbound_nodes": [[["merge_10", 0, 0]]], "config": {"b_constraint": null, "W_regularizer": null, "name": "dense_1", "activation": "linear", "trainable": true, "input_dim": null, "init": "glorot_uniform", "bias": true, "b_regularizer": null, "W_constraint": null, "output_dim": 128, "activity_regularizer": null}, "name": "dense_1", "class_name": "Dense"}, {"inbound_nodes": [[["dense_1", 0, 0]]], "config": {"momentum": 0.99, "mode": 0, "name": "batchnormalization_25", "axis": 1, "trainable": true, "epsilon": 1e-06}, "name": "batchnormalization_25", "class_name": "BatchNormalization"}, {"inbound_nodes": [[["batchnormalization_25", 0, 0]]], "config": {"trainable": true, "name": "leakyrelu_25", "alpha": 0.2}, "name": "leakyrelu_25", "class_name": "LeakyReLU"}, {"inbound_nodes": [[["leakyrelu_25", 0, 0]]], "config": {"b_constraint": null, "W_regularizer": null, "name": "dense_2", "activation": "linear", "trainable": true, "input_dim": null, "init": "glorot_uniform", "bias": true, "b_regularizer": null, "W_constraint": null, "output_dim": 16, "activity_regularizer": null}, "name": "dense_2", "class_name": "Dense"}, {"inbound_nodes": [[["dense_2", 0, 0]]], "config": {"momentum": 0.99, "mode": 0, "name": "batchnormalization_26", "axis": 1, "trainable": true, "epsilon": 1e-06}, "name": "batchnormalization_26", "class_name": "BatchNormalization"}, {"inbound_nodes": [[["batchnormalization_26", 0, 0]]], "config": {"trainable": true, "name": "leakyrelu_26", "alpha": 0.2}, "name": "leakyrelu_26", "class_name": "LeakyReLU"}, {"inbound_nodes": [[["leakyrelu_26", 0, 0]]], "config": {"trainable": true, "name": "reshape_9", "target_shape": [16, 1, 1]}, "name": "reshape_9", "class_name": "Reshape"}, {"inbound_nodes": [[["leakyrelu_12", 0, 0]]], "config": {"size": [2, 2], "trainable": true, "name": "upsampling2d_1"}, "name": "upsampling2d_1", "class_name": "UpSampling2D"}, {"inbound_nodes": [[["leakyrelu_13", 0, 0]]], "config": {"size": [2, 2], "trainable": true, "name": "upsampling2d_2"}, "name": "upsampling2d_2", "class_name": "UpSampling2D"}, {"inbound_nodes": [[["leakyrelu_14", 0, 0]]], "config": {"size": [4, 4], "trainable": true, "name": "upsampling2d_3"}, "name": "upsampling2d_3", "class_name": "UpSampling2D"}, {"inbound_nodes": [[["leakyrelu_19", 0, 0]]], "config": {"size": [8, 8], "trainable": true, "name": "upsampling2d_4"}, "name": "upsampling2d_4", "class_name": "UpSampling2D"}, {"inbound_nodes": [[["leakyrelu_21", 0, 0]]], "config": {"size": [8, 8], "trainable": true, "name": "upsampling2d_5"}, "name": "upsampling2d_5", "class_name": "UpSampling2D"}, {"inbound_nodes": [[["leakyrelu_24", 0, 0]]], "config": {"size": [8, 8], "trainable": true, "name": "upsampling2d_6"}, "name": "upsampling2d_6", "class_name": "UpSampling2D"}, {"inbound_nodes": [[["reshape_9", 0, 0]]], "config": {"size": [40, 56], "trainable": true, "name": "upsampling2d_7"}, "name": "upsampling2d_7", "class_name": "UpSampling2D"}, {"inbound_nodes": [[["leakyrelu_8", 0, 0], ["leakyrelu_10", 0, 0], ["upsampling2d_1", 0, 0], ["upsampling2d_2", 0, 0], ["upsampling2d_3", 0, 0], ["upsampling2d_4", 0, 0], ["upsampling2d_5", 0, 0], ["upsampling2d_6", 0, 0], ["upsampling2d_7", 0, 0]]], "config": {"output_shape": null, "mode_type": "raw", "mode": "concat", "name": "merge_11", "dot_axes": [-1, -1], "output_shape_type": "raw", "concat_axis": 1}, "name": "merge_11", "class_name": "Merge"}, {"inbound_nodes": [[["leakyrelu_26", 0, 0]]], "config": {"b_constraint": null, "W_regularizer": null, "name": "dense_3", "activation": "linear", "trainable": true, "input_dim": null, "init": "glorot_uniform", "bias": true, "b_regularizer": null, "W_constraint": null, "output_dim": 1, "activity_regularizer": null}, "name": "dense_3", "class_name": "Dense"}, {"inbound_nodes": [[["merge_11", 0, 0]]], "config": {"b_constraint": null, "W_regularizer": null, "name": "semishared_1", "activation": "linear", "W_constraint": null, "border_mode": "valid", "trainable": true, "init": "glorot_uniform", "activity_regularizer": null, "nb_col": 1, "nb_filter": 1, "bias": true, "b_regularizer": null, "dim_ordering": "th", "nb_row": 1, "shared_pool": [8, 8], "subsample": [1, 1]}, "name": "semishared_1", "class_name": "SemiShared"}, {"inbound_nodes": [[["dense_3", 0, 0]]], "config": {"momentum": 0.99, "mode": 0, "name": "batchnormalization_27", "axis": 1, "trainable": true, "epsilon": 1e-06}, "name": "batchnormalization_27", "class_name": "BatchNormalization"}, {"inbound_nodes": [[["semishared_1", 0, 0]]], "config": {"trainable": true, "name": "reshape_12", "target_shape": [2240]}, "name": "reshape_12", "class_name": "Reshape"}, {"inbound_nodes": [[["batchnormalization_27", 0, 0]]], "config": {"trainable": true, "name": "activation_1", "activation": "sigmoid"}, "name": "activation_1", "class_name": "Activation"}, {"inbound_nodes": [[["reshape_12", 0, 0]]], "config": {"momentum": 0.99, "mode": 0, "name": "batchnormalization_28", "axis": 1, "trainable": true, "epsilon": 1e-06}, "name": "batchnormalization_28", "class_name": "BatchNormalization"}, {"inbound_nodes": [[["activation_1", 0, 0]]], "config": {"trainable": true, "name": "reshape_10", "target_shape": [1, 1, 1]}, "name": "reshape_10", "class_name": "Reshape"}, {"inbound_nodes": [[["batchnormalization_28", 0, 0]]], "config": {"trainable": true, "name": "reshape_11", "target_shape": [1, 40, 56]}, "name": "reshape_11", "class_name": "Reshape"}, {"inbound_nodes": [[["reshape_11", 0, 0]]], "config": {"trainable": true, "name": "activation_2", "activation": "sigmoid"}, "name": "activation_2", "class_name": "Activation"}, {"inbound_nodes": [[["reshape_10", 0, 0]]], "config": {"size": [40, 56], "trainable": true, "name": "upsampling2d_8"}, "name": "upsampling2d_8", "class_name": "UpSampling2D"}, {"inbound_nodes": [[["upsampling2d_8", 0, 0], ["activation_2", 0, 0]]], "config": {"output_shape": null, "mode_type": "raw", "mode": "mul", "name": "merge_12", "dot_axes": [-1, -1], "output_shape_type": "raw", "concat_axis": -1}, "name": "merge_12", "class_name": "Merge"}], "input_layers": [["input_1", 0, 0]]}, "optimizer": {"beta_2": 0.9990000128746033, "name": "Adam", "beta_1": 0.8999999761581421, "lr": 0.0005000000237487257, "epsilon": 1e-08}, "keras_version": "1.0.6", "class_name": "Model"}